saving to ./result
creating model resnet20_1w1a
model structure: ResNet(
  (conv1): Conv2d(3, 16, kernel_size=(3, 3), stride=(1, 1), padding=(1, 1), bias=False)
  (bn1): BatchNorm2d(16, eps=1e-05, momentum=0.1, affine=True, track_running_stats=True)
  (layer1): Sequential(
    (0): BasicBlock_1w1a(
      (conv1): BinarizeConv2d(16, 16, kernel_size=(3, 3), stride=(1, 1), padding=(1, 1), bias=False)
      (bn1): BatchNorm2d(16, eps=1e-05, momentum=0.1, affine=True, track_running_stats=True)
      (conv2): BinarizeConv2d(16, 16, kernel_size=(3, 3), stride=(1, 1), padding=(1, 1), bias=False)
      (bn2): BatchNorm2d(16, eps=1e-05, momentum=0.1, affine=True, track_running_stats=True)
      (Hardtanh): Hardtanh(min_val=-1.0, max_val=1.0)
      (shortcut): Sequential()
    )
    (1): BasicBlock_1w1a(
      (conv1): BinarizeConv2d(16, 16, kernel_size=(3, 3), stride=(1, 1), padding=(1, 1), bias=False)
      (bn1): BatchNorm2d(16, eps=1e-05, momentum=0.1, affine=True, track_running_stats=True)
      (conv2): BinarizeConv2d(16, 16, kernel_size=(3, 3), stride=(1, 1), padding=(1, 1), bias=False)
      (bn2): BatchNorm2d(16, eps=1e-05, momentum=0.1, affine=True, track_running_stats=True)
      (Hardtanh): Hardtanh(min_val=-1.0, max_val=1.0)
      (shortcut): Sequential()
    )
    (2): BasicBlock_1w1a(
      (conv1): BinarizeConv2d(16, 16, kernel_size=(3, 3), stride=(1, 1), padding=(1, 1), bias=False)
      (bn1): BatchNorm2d(16, eps=1e-05, momentum=0.1, affine=True, track_running_stats=True)
      (conv2): BinarizeConv2d(16, 16, kernel_size=(3, 3), stride=(1, 1), padding=(1, 1), bias=False)
      (bn2): BatchNorm2d(16, eps=1e-05, momentum=0.1, affine=True, track_running_stats=True)
      (Hardtanh): Hardtanh(min_val=-1.0, max_val=1.0)
      (shortcut): Sequential()
    )
  )
  (layer2): Sequential(
    (0): BasicBlock_1w1a(
      (conv1): BinarizeConv2d(16, 32, kernel_size=(3, 3), stride=(2, 2), padding=(1, 1), bias=False)
      (bn1): BatchNorm2d(32, eps=1e-05, momentum=0.1, affine=True, track_running_stats=True)
      (conv2): BinarizeConv2d(32, 32, kernel_size=(3, 3), stride=(1, 1), padding=(1, 1), bias=False)
      (bn2): BatchNorm2d(32, eps=1e-05, momentum=0.1, affine=True, track_running_stats=True)
      (Hardtanh): Hardtanh(min_val=-1.0, max_val=1.0)
      (shortcut): LambdaLayer()
    )
    (1): BasicBlock_1w1a(
      (conv1): BinarizeConv2d(32, 32, kernel_size=(3, 3), stride=(1, 1), padding=(1, 1), bias=False)
      (bn1): BatchNorm2d(32, eps=1e-05, momentum=0.1, affine=True, track_running_stats=True)
      (conv2): BinarizeConv2d(32, 32, kernel_size=(3, 3), stride=(1, 1), padding=(1, 1), bias=False)
      (bn2): BatchNorm2d(32, eps=1e-05, momentum=0.1, affine=True, track_running_stats=True)
      (Hardtanh): Hardtanh(min_val=-1.0, max_val=1.0)
      (shortcut): Sequential()
    )
    (2): BasicBlock_1w1a(
      (conv1): BinarizeConv2d(32, 32, kernel_size=(3, 3), stride=(1, 1), padding=(1, 1), bias=False)
      (bn1): BatchNorm2d(32, eps=1e-05, momentum=0.1, affine=True, track_running_stats=True)
      (conv2): BinarizeConv2d(32, 32, kernel_size=(3, 3), stride=(1, 1), padding=(1, 1), bias=False)
      (bn2): BatchNorm2d(32, eps=1e-05, momentum=0.1, affine=True, track_running_stats=True)
      (Hardtanh): Hardtanh(min_val=-1.0, max_val=1.0)
      (shortcut): Sequential()
    )
  )
  (layer3): Sequential(
    (0): BasicBlock_1w1a(
      (conv1): BinarizeConv2d(32, 64, kernel_size=(3, 3), stride=(2, 2), padding=(1, 1), bias=False)
      (bn1): BatchNorm2d(64, eps=1e-05, momentum=0.1, affine=True, track_running_stats=True)
      (conv2): BinarizeConv2d(64, 64, kernel_size=(3, 3), stride=(1, 1), padding=(1, 1), bias=False)
      (bn2): BatchNorm2d(64, eps=1e-05, momentum=0.1, affine=True, track_running_stats=True)
      (Hardtanh): Hardtanh(min_val=-1.0, max_val=1.0)
      (shortcut): LambdaLayer()
    )
    (1): BasicBlock_1w1a(
      (conv1): BinarizeConv2d(64, 64, kernel_size=(3, 3), stride=(1, 1), padding=(1, 1), bias=False)
      (bn1): BatchNorm2d(64, eps=1e-05, momentum=0.1, affine=True, track_running_stats=True)
      (conv2): BinarizeConv2d(64, 64, kernel_size=(3, 3), stride=(1, 1), padding=(1, 1), bias=False)
      (bn2): BatchNorm2d(64, eps=1e-05, momentum=0.1, affine=True, track_running_stats=True)
      (Hardtanh): Hardtanh(min_val=-1.0, max_val=1.0)
      (shortcut): Sequential()
    )
    (2): BasicBlock_1w1a(
      (conv1): BinarizeConv2d(64, 64, kernel_size=(3, 3), stride=(1, 1), padding=(1, 1), bias=False)
      (bn1): BatchNorm2d(64, eps=1e-05, momentum=0.1, affine=True, track_running_stats=True)
      (conv2): BinarizeConv2d(64, 64, kernel_size=(3, 3), stride=(1, 1), padding=(1, 1), bias=False)
      (bn2): BatchNorm2d(64, eps=1e-05, momentum=0.1, affine=True, track_running_stats=True)
      (Hardtanh): Hardtanh(min_val=-1.0, max_val=1.0)
      (shortcut): Sequential()
    )
  )
  (bn2): BatchNorm1d(64, eps=1e-05, momentum=0.1, affine=True, track_running_stats=True)
  (linear): Linear(in_features=64, out_features=10, bias=True)
  (Hardtanh): Hardtanh(min_val=-1.0, max_val=1.0)
)
number of parameters: 269851
criterion: CrossEntropyLoss()
scheduler: <torch.optim.lr_scheduler.CosineAnnealingLR object at 0x7faa33ee8a90>
lr: 0.02
TRAINING - Epoch: [0][0/196]	Time 0.932 (0.932)	Data 0.357 (0.357)	Loss 2.5460 (2.5460)	Prec@1 12.109 (12.109)	Prec@5 51.953 (51.953)
TRAINING - Epoch: [0][100/196]	Time 0.248 (0.238)	Data 0.001 (0.005)	Loss 2.1152 (2.2303)	Prec@1 21.875 (17.002)	Prec@5 72.266 (66.136)
…
