saving to ./result
creating model resnet20_1w1a
model structure: ResNet(
  (conv1): Conv2d(3, 16, kernel_size=(3, 3), stride=(1, 1), padding=(1, 1), bias=False)
  (bn1): BatchNorm2d(16, eps=1e-05, momentum=0.1, affine=True, track_running_stats=True)
  (layer1): Sequential(
    (0): BasicBlock_1w1a(
      (conv1): BinarizeConv2d(16, 16, kernel_size=(3, 3), stride=(1, 1), padding=(1, 1), bias=False)
      (bn1): BatchNorm2d(16, eps=1e-05, momentum=0.1, affine=True, track_running_stats=True)
      (conv2): BinarizeConv2d(16, 16, kernel_size=(3, 3), stride=(1, 1), padding=(1, 1), bias=False)
      (bn2): BatchNorm2d(16, eps=1e-05, momentum=0.1, affine=True, track_running_stats=True)
      (Hardtanh): Hardtanh(min_val=-1.0, max_val=1.0)
      (shortcut): Sequential()
    )
    (1): BasicBlock_1w1a(
      (conv1): BinarizeConv2d(16, 16, kernel_size=(3, 3), stride=(1, 1), padding=(1, 1), bias=False)
      (bn1): BatchNorm2d(16, eps=1e-05, momentum=0.1, affine=True, track_running_stats=True)
      (conv2): BinarizeConv2d(16, 16, kernel_size=(3, 3), stride=(1, 1), padding=(1, 1), bias=False)
      (bn2): BatchNorm2d(16, eps=1e-05, momentum=0.1, affine=True, track_running_stats=True)
      (Hardtanh): Hardtanh(min_val=-1.0, max_val=1.0)
      (shortcut): Sequential()
    )
    (2): BasicBlock_1w1a(
      (conv1): BinarizeConv2d(16, 16, kernel_size=(3, 3), stride=(1, 1), padding=(1, 1), bias=False)
      (bn1): BatchNorm2d(16, eps=1e-05, momentum=0.1, affine=True, track_running_stats=True)
      (conv2): BinarizeConv2d(16, 16, kernel_size=(3, 3), stride=(1, 1), padding=(1, 1), bias=False)
      (bn2): BatchNorm2d(16, eps=1e-05, momentum=0.1, affine=True, track_running_stats=True)
      (Hardtanh): Hardtanh(min_val=-1.0, max_val=1.0)
      (shortcut): Sequential()
    )
  )
  (layer2): Sequential(
    (0): BasicBlock_1w1a(
      (conv1): BinarizeConv2d(16, 32, kernel_size=(3, 3), stride=(2, 2), padding=(1, 1), bias=False)
      (bn1): BatchNorm2d(32, eps=1e-05, momentum=0.1, affine=True, track_running_stats=True)
      (conv2): BinarizeConv2d(32, 32, kernel_size=(3, 3), stride=(1, 1), padding=(1, 1), bias=False)
      (bn2): BatchNorm2d(32, eps=1e-05, momentum=0.1, affine=True, track_running_stats=True)
      (Hardtanh): Hardtanh(min_val=-1.0, max_val=1.0)
      (shortcut): LambdaLayer()
    )
    (1): BasicBlock_1w1a(
      (conv1): BinarizeConv2d(32, 32, kernel_size=(3, 3), stride=(1, 1), padding=(1, 1), bias=False)
      (bn1): BatchNorm2d(32, eps=1e-05, momentum=0.1, affine=True, track_running_stats=True)
      (conv2): BinarizeConv2d(32, 32, kernel_size=(3, 3), stride=(1, 1), padding=(1, 1), bias=False)
      (bn2): BatchNorm2d(32, eps=1e-05, momentum=0.1, affine=True, track_running_stats=True)
      (Hardtanh): Hardtanh(min_val=-1.0, max_val=1.0)
      (shortcut): Sequential()
    )
    (2): BasicBlock_1w1a(
      (conv1): BinarizeConv2d(32, 32, kernel_size=(3, 3), stride=(1, 1), padding=(1, 1), bias=False)
      (bn1): BatchNorm2d(32, eps=1e-05, momentum=0.1, affine=True, track_running_stats=True)
      (conv2): BinarizeConv2d(32, 32, kernel_size=(3, 3), stride=(1, 1), padding=(1, 1), bias=False)
      (bn2): BatchNorm2d(32, eps=1e-05, momentum=0.1, affine=True, track_running_stats=True)
      (Hardtanh): Hardtanh(min_val=-1.0, max_val=1.0)
      (shortcut): Sequential()
    )
  )
  (layer3): Sequential(
    (0): BasicBlock_1w1a(
      (conv1): BinarizeConv2d(32, 64, kernel_size=(3, 3), stride=(2, 2), padding=(1, 1), bias=False)
      (bn1): BatchNorm2d(64, eps=1e-05, momentum=0.1, affine=True, track_running_stats=True)
      (conv2): BinarizeConv2d(64, 64, kernel_size=(3, 3), stride=(1, 1), padding=(1, 1), bias=False)
      (bn2): BatchNorm2d(64, eps=1e-05, momentum=0.1, affine=True, track_running_stats=True)
      (Hardtanh): Hardtanh(min_val=-1.0, max_val=1.0)
      (shortcut): LambdaLayer()
    )
    (1): BasicBlock_1w1a(
      (conv1): BinarizeConv2d(64, 64, kernel_size=(3, 3), stride=(1, 1), padding=(1, 1), bias=False)
      (bn1): BatchNorm2d(64, eps=1e-05, momentum=0.1, affine=True, track_running_stats=True)
      (conv2): BinarizeConv2d(64, 64, kernel_size=(3, 3), stride=(1, 1), padding=(1, 1), bias=False)
      (bn2): BatchNorm2d(64, eps=1e-05, momentum=0.1, affine=True, track_running_stats=True)
      (Hardtanh): Hardtanh(min_val=-1.0, max_val=1.0)
      (shortcut): Sequential()
    )
    (2): BasicBlock_1w1a(
      (conv1): BinarizeConv2d(64, 64, kernel_size=(3, 3), stride=(1, 1), padding=(1, 1), bias=False)
      (bn1): BatchNorm2d(64, eps=1e-05, momentum=0.1, affine=True, track_running_stats=True)
      (conv2): BinarizeConv2d(64, 64, kernel_size=(3, 3), stride=(1, 1), padding=(1, 1), bias=False)
      (bn2): BatchNorm2d(64, eps=1e-05, momentum=0.1, affine=True, track_running_stats=True)
      (Hardtanh): Hardtanh(min_val=-1.0, max_val=1.0)
      (shortcut): Sequential()
    )
  )
  (bn2): BatchNorm1d(64, eps=1e-05, momentum=0.1, affine=True, track_running_stats=True)
  (linear): Linear(in_features=64, out_features=10, bias=True)
  (Hardtanh): Hardtanh(min_val=-1.0, max_val=1.0)
)
number of parameters: 269868
criterion: CrossEntropyLoss()
scheduler: <torch.optim.lr_scheduler.CosineAnnealingLR object at 0x7f8bc1f49b10>
lr: 0.02
TRAINING - Epoch: [0][0/196]	Time 1.423 (1.423)	Data 0.607 (0.607)	Loss 4.0039 (4.0039)	Prec@1 11.719 (11.719)	Prec@5 48.438 (48.438)
TRAINING - Epoch: [0][100/196]	Time 0.109 (0.099)	Data 0.003 (0.009)	Loss 2.8315 (3.0426)	Prec@1 24.219 (20.997)	Prec@5 75.391 (72.726)
…
